src/torchmetrics/functional/image/dists_models/weights.pt (torch_old, 12288 bytes, 2 tensors)

alpha f4 [1, 1475, 1, 1]
000000 c3 93 ac 3c 02 90 ac 3c 79 97 ac 3c 7c 29 22 3a
       0.021066552 0.021064762 0.021068322 0.0006185991
000010 4a 56 29 3a 8b 89 1c 3a 5e a0 16 3a a9 be 29 3a
       0.00064596965 0.0005971423 0.00057459425 0.0006475249
000020 db ab 21 3a e2 8e 17 3a 69 a1 20 3a 81 d9 29 3a
       0.0006167271 0.0005781484 0.00061275676 0.0006479249
000030 2b 3b 21 3a 18 f8 22 3a 7e 51 07 3a 93 d7 1c 3a
       0.00061504793 0.00062167784 0.00051619846 0.0005983051
000040 86 9c 1d 3a d9 96 26 3a 4a cc 15 3a a7 c9 18 3a
       0.00060123985 0.00063548755 0.00057143404 0.00058283884
000050 60 b3 17 3a 54 52 1f 3a d5 4b 27 3a 16 c1 1d 3a
       0.0005786922 0.00060776365 0.0006381844 0.0006017847
000060 45 89 22 3a 26 9a 17 3a 40 29 17 3a c9 e3 1f 3a
       0.00062002643 0.0005783163 0.00057663396 0.0006099311
000070 f6 ad 22 3a ed 13 19 3a e7 35 1a 3a c4 f6 1b 3a
       0.0006205732 0.0005839456 0.0005882666 0.00059495517
000080 be 99 15 3a b5 4c 18 3a ef ea 1c 3a f5 af 09 3a
       0.00057068083 0.000580977 0.00059859356 0.0005252355
000090 b6 00 1e 3a fb aa 20 3a 98 50 24 3a 7f ad 22 3a
       0.00060273276 0.00061289937 0.0006268113 0.00062056625
0000a0 69 92 1f 3a 81 1a 0c 3a 2c 68 17 3a 55 e6 1a 3a
       0.00060871855 0.00053445256 0.00057757157 0.0005908956
0000b0 e1 32 29 3a 7f cf 1e 3a a9 7d 1c 3a 25 f1 21 3a
       0.000645442 0.0006058141 0.00059696526 0.0006177596
0000c0 47 c5 1b 3a ac 68 21 3a 69 ba 2e 3a 4d 06 2c 3a
       0.00059421774 0.000615726 0.00066653505 0.0006562218
0000d0 7d e1 1a 3a 84 59 28 3a 9d e3 2a 3a 56 7d 12 3a
       0.0005908234 0.000642203 0.00065189024 0.00055881345
0000e0 d8 a9 14 3a df 53 1e 3a 95 2e 15 3a 2d d1 1e 3a
       0.00056710606 0.00060397194 0.000569084 0.00060583913
0000f0 6b e8 2b 3a 21 3d 22 3a 98 95 0a 3a f5 10 1d 3a
       0.00065577653 0.00061889185 0.00052865734 0.00059916015
000100 22 f3 13 3a c0 0b 1d 3a 3b 82 39 3a 63 b2 25 3a
       0.00056438346 0.00059908256 0.0007076596 0.0006320832
000110 ce b0 1e 3a de c2 1c 3a ab 22 25 3a d8 ed 2d 3a
       0.00060535676 0.0005979965 0.00062994164 0.0006634868
000120 2d ef 1f 3a 7a e7 1e 3a 61 cf 1a 3a f4 42 1f 3a
       0.00061010086 0.00060617144 0.00059055357 0.00060753454
000130 9e d9 22 3a ff 41 21 3a 4f c7 17 3a 2c 1f 1e 3a
       0.0006212237 0.0006151497 0.0005789892 0.00060318667
000140 f1 7b 19 3a 5e 8c 25 3a 78 23 33 3a bd bb 23 3a
       0.00058549555 0.0006315167 0.00068335934 0.0006245932
000150 5d e9 1b 3a 76 ed 1f 3a 41 06 14 3a 08 5d 1a 3a
       0.00059475546 0.0006100753 0.0005646684 0.00058884965
000160 96 8e 18 3a 74 cd 18 3a f8 03 23 3a a2 94 1d 3a
       0.0005819587 0.0005828955 0.0006218548 0.0006011223
000170 b2 62 29 3a 0e ab 1f 3a 92 5f 1a 3a a5 ba 1a 3a
       0.0006461545 0.0006090858 0.0005888875 0.0005902446
000180 8d 2d 1d 3a 63 63 1a 3a 09 b3 22 3a 0d c6 16 3a
       0.00059958623 0.00058894436 0.0006206488 0.0005751558
000190 e2 82 17 3a be 62 1d 3a 46 33 2d 3a 52 f3 18 3a
       0.0005779696 0.00060037884 0.00066070666 0.00058345974
0001a0 ba e8 1f 3a 0c 9a 1a 3a dc fd 18 3a 52 4b 1b 3a
       0.00061000476 0.00058975886 0.0005836168 0.00059240044
0001b0 b0 8d 21 3a 80 17 1b 3a 91 ab 29 3a 5b 29 1f 3a
       0.00061627757 0.00059162825 0.0006472404 0.0006071531
0001c0 18 70 0f 3a a6 a7 25 3a cb 28 0d 3a 1e 71 1a 3a
       0.00054717204 0.0006319232 0.0005384802 0.00058914896
0001d0 0f 36 27 3a 9c b8 2f 3a 9e c0 1d 3a 1a 3a 10 3a
       0.00063786 0.0006703229 0.0006017777 0.0005501822
0001e0 ef d7 27 3a 44 df 23 3a 92 43 22 3a 0e 1b 05 3a
       0.0006402721 0.0006251226 0.00061898783 0.0005077579
0001f0 e7 9c 26 3a 38 62 16 3a 94 f1 10 3a 19 48 2a 3a
       0.0006355778 0.00057366816 0.0005529162 0.0006495729
000200 30 7f 26 3a 74 73 26 3a 10 3b 23 3a 1f 45 34 3a
       0.000635135 0.00063496013 0.00062267575 0.0006876755
000210 e5 fb 21 3a 22 d8 20 3a a7 48 1c 3a 5b 8d 19 3a
       0.0006179198 0.0006135722 0.0005961754 0.00058575504
000220 4f 0c 24 3a f3 2c 21 3a 7e 76 20 3a 40 80 2f 3a
       0.00062579376 0.00061483606 0.00061211723 0.0006694831
000230 57 12 22 3a b2 e5 32 3a 6a f2 17 3a 83 fb 12 3a
       0.00061825424 0.00068243884 0.00057963154 0.0005606936
000240 c8 cd 29 3a 8f 81 1e 3a 85 08 13 3a 45 ce 22 3a
       0.0006477502 0.00060465274 0.00056088745 0.0006210546
000250 45 f7 28 3a a8 23 1c 3a 20 e6 22 3a 34 98 1a 3a
       0.00064455374 0.0005956241 0.0006214101 0.0005897314
000260 c6 90 21 3a a9 fe 30 3a a9 f2 25 3a 90 ee 1e 3a
       0.00061632355 0.00067518145 0.00063304097 0.000606277
000270 c6 3c 24 3a 9f 1b 1c 3a a5 c5 1b 3a ab db 1c 3a
       0.00062651595 0.00059550436 0.0005942232 0.0005983661
000280 55 8b 13 3a 3a 4c 1c 3a 3e 8a 32 3a d3 3d 1c 3a
       0.0005628367 0.00059622864 0.0006810761 0.000596014
000290 fc 7b 1a 3a fa e7 18 3a 97 77 2b 3a 0f 04 1c 3a
       0.0005893109 0.0005832907 0.00065409526 0.00059515325
0002a0 34 f7 17 3a 7b ba 19 3a 7e c5 18 3a 76 24 19 3a
       0.0005797029 0.00058642746 0.00058277685 0.000584192
0002b0 60 4f 29 3a db fd 23 3a d1 c9 2c 3a 23 52 13 3a
       0.0006458666 0.0006255784 0.0006591352 0.00056198443
0002c0 37 cd 24 3a a4 42 1e 3a a6 e4 13 3a ff 8e 15 3a
       0.0006286683 0.0006037152 0.0005641676 0.0005705207
0002d0 8a 7d 21 3a f4 c1 1a 3a 41 ef 23 3a a2 77 20 3a
       0.00061603694 0.0005903535 0.0006253608 0.00061213423
0002e0 5d 04 1a 3a 80 6e 27 3a e3 2a 10 3a 07 a5 21 3a
       0.0005875284 0.000638701 0.00054995547 0.00061662536
0002f0 9d 57 1b 3a 4a b9 22 3a 01 c5 1e 3a 7d 4c 20 3a
       0.0005925836 0.000620742 0.00060565775 0.0006114913
000300 e6 64 21 3a 59 f8 1e 3a 1d 6c 2f 3a 90 fc 1f 3a
       0.00061566976 0.00060642284 0.00066918303 0.00061030034
000310 68 92 1e 3a 3a a1 21 3a f9 54 15 3a 5e cb 20 3a
       0.0006049038 0.0006165687 0.0005696561 0.00061338197
000320 54 39 25 3a c0 2f 14 3a 18 e0 1d 3a cb e2 1d 3a
       0.0006302793 0.0005652867 0.0006022467 0.00060228695
000330 29 d8 1a 3a 3c d9 0e 3a 5d f8 1f 3a 06 bb 1a 3a
       0.0005906844 0.00054492406 0.00061023777 0.00059025025
000340 ac e2 12 3a 80 0f 14 3a b9 d7 1e 3a b4 38 17 3a
       0.0005603235 0.00056480616 0.0006059367 0.00057686423
000350 6e 42 32 3a 4d aa 21 3a 9c d0 17 3a e5 08 19 3a
       0.000680006 0.00061670394 0.0005791278 0.0005837812
000360 ed 48 24 3a ab 5b 2c 3a e4 bd 23 3a 58 7c 14 3a
       0.00062669703 0.0006574939 0.00062462525 0.00056642806
000370 db 0e 2e 3a 21 98 0f 3a 6f 17 1f 3a aa ce 16 3a
       0.0006639787 0.0005477686 0.00060688605 0.0005752841
000380 ba a3 1a 3a 61 b1 15 3a 02 64 09 3a 6f 28 1a 3a
       0.0005899031 0.00057103304 0.00052410376 0.0005880659
000390 b9 50 23 3a cd d2 1d 3a 74 b0 17 3a 64 ec 1e 3a
       0.0006229985 0.00060204865 0.00057864864 0.00060624466
0003a0 6a 25 1c 3a 41 e4 19 3a db 68 13 3a 87 28 1a 3a
       0.0005956503 0.00058704993 0.00056232297 0.0005880673
0003b0 10 fc 0e 3a f1 6c 13 3a 1e ee 1a 3a dd 6c 16 3a
       0.00054544304 0.00056238385 0.0005910116 0.0005738268
0003c0 a9 f1 15 3a 50 6c 28 3a 0b 75 30 3a 3b 00 1e 3a
       0.0005719909 0.0006424831 0.0006731308 0.0006027256
0003d0 a5 46 1d 3a 03 51 1a 3a dc 64 1a 3a fa 4a 2f 3a
       0.00059996016 0.00058867055 0.0005889663 0.00066868926
0003e0 1f e4 22 3a ea 47 11 3a 53 f2 23 3a 71 25 19 3a
       0.0006213802 0.0005542027 0.00062540657 0.0005842066
0003f0 e2 3e 1a 3a af b6 16 3a 60 9d 1b 3a d9 81 2e 3a
       0.0005884004 0.0005749268 0.00059362315 0.0006656922

beta f4 [1, 1475, 1, 1]
000000 ee 40 a8 3c 43 40 a8 3c d9 3f a8 3c 00 00 00 00
       0.020538773 0.020538455 0.020538257 0.0
000010 00 00 00 00 00 00 00 00 00 00 00 00 00 00 00 00
       0.0 0.0 0.0 0.0
000020 00 00 00 00 00 00 00 00 00 00 00 00 00 00 00 00
       0.0 0.0 0.0 0.0
000030 00 00 00 00 00 00 00 00 00 00 00 00 00 00 00 00
       0.0 0.0 0.0 0.0
000040 00 00 00 00 d2 30 2a 38 00 00 00 00 a6 e4 1f 37
       0.0 4.0576626e-05 0.0 9.530375e-06
000050 14 9e a8 35 00 00 00 00 00 00 00 00 00 00 00 00
       1.2562982e-06 0.0 0.0 0.0
000060 00 00 00 00 00 00 00 00 00 00 00 00 00 00 00 00
       0.0 0.0 0.0 0.0
000070 00 00 00 00 00 00 00 00 00 00 00 00 00 00 00 00
       0.0 0.0 0.0 0.0
000080 00 00 00 00 00 00 00 00 00 00 00 00 00 00 00 00
       0.0 0.0 0.0 0.0
000090 00 00 00 00 00 00 00 00 00 00 00 00 00 00 00 00
       0.0 0.0 0.0 0.0
0000a0 00 00 00 00 00 00 00 00 00 00 00 00 00 00 00 00
       0.0 0.0 0.0 0.0
0000b0 00 00 00 00 00 00 00 00 00 00 00 00 00 00 00 00
       0.0 0.0 0.0 0.0
0000c0 00 00 00 00 00 00 00 00 00 00 00 00 cb 14 ef 37
       0.0 0.0 0.0 2.8500703e-05
0000d0 00 00 00 00 bb 27 99 37 00 00 00 00 00 00 00 00
       0.0 1.8257522e-05 0.0 0.0
0000e0 00 00 00 00 00 00 00 00 00 00 00 00 00 00 00 00
       0.0 0.0 0.0 0.0
0000f0 00 00 00 00 00 00 00 00 00 00 00 00 00 00 00 00
       0.0 0.0 0.0 0.0
000100 00 00 00 00 00 00 00 00 be 21 3d 36 00 00 00 00
       0.0 0.0 2.8182835e-06 0.0
000110 9b 13 49 38 00 00 00 00 00 00 00 00 00 00 00 00
       4.7940393e-05 0.0 0.0 0.0
000120 00 00 00 00 00 00 00 00 2f 48 d1 35 00 00 00 00
       0.0 0.0 1.5592722e-06 0.0
000130 00 00 00 00 00 00 00 00 00 00 00 00 00 00 00 00
       0.0 0.0 0.0 0.0
000140 00 00 00 00 00 00 00 00 00 00 00 00 00 00 00 00
       0.0 0.0 0.0 0.0
000150 00 00 00 00 00 00 00 00 00 00 00 00 00 00 00 00
       0.0 0.0 0.0 0.0
000160 00 00 00 00 00 00 00 00 00 00 00 00 00 00 00 00
       0.0 0.0 0.0 0.0
000170 00 00 00 00 00 00 00 00 00 00 00 00 00 00 00 00
       0.0 0.0 0.0 0.0
000180 00 00 00 00 00 00 00 00 00 00 00 00 00 00 00 00
       0.0 0.0 0.0 0.0
000190 00 00 00 00 00 00 00 00 06 fb 30 38 00 00 00 00
       0.0 0.0 4.2195454e-05 0.0
0001a0 00 00 00 00 ce 44 1a 38 00 00 00 00 00 00 00 00
       0.0 3.678054e-05 0.0 0.0
0001b0 00 00 00 00 00 00 00 00 00 00 00 00 00 00 00 00
       0.0 0.0 0.0 0.0
0001c0 00 00 00 00 00 00 00 00 00 00 00 00 7f c6 b6 37
       0.0 0.0 0.0 2.1788523e-05
0001d0 00 00 00 00 00 00 00 00 00 00 00 00 00 00 00 00
       0.0 0.0 0.0 0.0
0001e0 00 00 00 00 00 00 00 00 00 00 00 00 15 b6 dd 37
       0.0 0.0 0.0 2.6430042e-05
0001f0 00 00 00 00 22 c0 43 37 00 00 00 00 00 00 00 00
       0.0 1.166764e-05 0.0 0.0
000200 00 00 00 00 00 00 00 00 00 00 00 00 00 00 00 00
       0.0 0.0 0.0 0.0
000210 00 00 00 00 4c 70 5e 38 56 36 1c 37 00 00 00 00
       0.0 5.303351e-05 9.310976e-06 0.0
000220 00 00 00 00 00 00 00 00 00 00 00 00 00 00 00 00
       0.0 0.0 0.0 0.0
000230 00 00 00 00 00 00 00 00 00 00 00 00 00 00 00 00
       0.0 0.0 0.0 0.0
000240 00 00 00 00 00 00 00 00 00 00 00 00 00 00 00 00
       0.0 0.0 0.0 0.0
000250 00 00 00 00 00 00 00 00 00 00 00 00 00 00 00 00
       0.0 0.0 0.0 0.0
000260 00 00 00 00 00 00 00 00 00 00 00 00 00 00 00 00
       0.0 0.0 0.0 0.0
000270 00 00 00 00 00 00 00 00 00 00 00 00 a3 06 32 36
       0.0 0.0 0.0 2.652793e-06
000280 00 00 00 00 00 00 00 00 00 00 00 00 00 00 00 00
       0.0 0.0 0.0 0.0
000290 00 00 00 00 00 00 00 00 74 d7 ae 35 00 00 00 00
       0.0 0.0 1.3026715e-06 0.0
0002a0 00 00 00 00 00 00 00 00 7e a7 cb 36 00 00 00 00
       0.0 0.0 6.06937e-06 0.0
0002b0 00 00 00 00 00 00 00 00 00 00 00 00 00 00 00 00
       0.0 0.0 0.0 0.0
0002c0 00 00 00 00 5a 65 a9 37 4c e7 00 37 00 00 00 00
       0.0 2.0193565e-05 7.6832475e-06 0.0
0002d0 88 ab 5f 37 c6 6f 25 38 00 00 00 00 c9 ab cf 37
       1.33317735e-05 3.9443163e-05 0.0 2.4756317e-05
0002e0 00 00 00 00 00 00 00 00 a0 3a d6 36 00 00 00 00
       0.0 0.0 6.384522e-06 0.0
0002f0 00 00 00 00 00 00 00 00 f5 e5 42 36 7b 60 c9 36
       0.0 0.0 2.9042105e-06 6.0014986e-06
000300 00 00 00 00 00 00 00 00 bc d2 91 39 00 00 00 00
       0.0 0.0 0.00027813565 0.0
000310 00 00 00 00 00 00 00 00 00 00 00 00 00 00 00 00
       0.0 0.0 0.0 0.0
000320 c5 81 be 36 00 00 00 00 00 00 00 00 00 00 00 00
       5.6775484e-06 0.0 0.0 0.0
000330 00 00 00 00 00 00 00 00 00 00 00 00 b1 ad 0f 37
       0.0 0.0 0.0 8.563905e-06
000340 00 00 00 00 e6 1b 1f 3a 00 00 00 00 00 00 00 00
       0.0 0.0006069526 0.0 0.0
000350 00 00 00 00 00 00 00 00 b5 2e b4 39 00 00 00 00
       0.0 0.0 0.00034367075 0.0
000360 36 4a 60 37 00 00 00 00 19 33 57 37 98 94 69 38
       1.3368719e-05 0.0 1.2826896e-05 5.5689918e-05
000370 00 00 00 00 00 00 00 00 00 00 00 00 00 00 00 00
       0.0 0.0 0.0 0.0
000380 00 00 00 00 00 00 00 00 00 00 00 00 00 00 00 00
       0.0 0.0 0.0 0.0
000390 00 00 00 00 00 00 00 00 00 00 00 00 00 00 00 00
       0.0 0.0 0.0 0.0
0003a0 00 00 00 00 00 00 00 00 8c 41 1d 36 62 b2 14 35
       0.0 0.0 2.3432976e-06 5.539388e-07
0003b0 00 00 00 00 00 00 00 00 00 00 00 00 00 00 00 00
       0.0 0.0 0.0 0.0
0003c0 00 00 00 00 d0 5f 3d 37 00 00 00 00 00 00 00 00
       0.0 1.1287586e-05 0.0 0.0
0003d0 00 00 00 00 00 00 00 00 00 00 00 00 00 00 00 00
       0.0 0.0 0.0 0.0
0003e0 00 00 00 00 00 00 00 00 00 00 00 00 00 00 00 00
       0.0 0.0 0.0 0.0
0003f0 00 00 00 00 00 00 00 00 00 00 00 00 00 00 00 00
       0.0 0.0 0.0 0.0
